…
{'arch': 'sqnxt_23_1x', 'batch_size': 128, 'data_path': './data', 'dataset': 'cifar10', 'decay': 0.0005, 'epochs': 300, 'evaluate': False, 'gammas': [0.1, 0.1], 'learning_rate': 0.1, 'manualSeed': 510, 'momentum': 0.9, 'ngpu': 1, 'print_freq': 200, 'resume': '', 'save_path': './snapshots/cifar10_sqnxt_23_1x_300', 'schedule': [150, 225], 'start_epoch': 0, 'use_cuda': True, 'workers': 4}
Random Seed: 510
python version : 3.6.5 |Anaconda, Inc.| (default, Apr 29 2018, 16:14:56)  [GCC 7.2.0]
torch  version : 0.4.1.post2
cudnn  version : 7102
=> creating model 'sqnxt_23_1x'
=> network :
 SqueezeNext(
  (conv1): Conv2d(3, 64, kernel_size=(3, 3), stride=(1, 1), padding=(1, 1))
  (bn1): BatchNorm2d(64, eps=1e-05, momentum=0.1, affine=True, track_running_stats=True)
  (stage1): Sequential(
    (0): BasicBlock(
      (conv1): Conv2d(64, 16, kernel_size=(1, 1), stride=(1, 1))
      (bn1): BatchNorm2d(16, eps=1e-05, momentum=0.1, affine=True, track_running_stats=True)
      (conv2): Conv2d(16, 8, kernel_size=(1, 1), stride=(1, 1))
      (bn2): BatchNorm2d(8, eps=1e-05, momentum=0.1, affine=True, track_running_stats=True)
      (conv3): Conv2d(8, 16, kernel_size=(1, 3), stride=(1, 1), padding=(0, 1))
      (bn3): BatchNorm2d(16, eps=1e-05, momentum=0.1, affine=True, track_running_stats=True)
      (conv4): Conv2d(16, 16, kernel_size=(3, 1), stride=(1, 1), padding=(1, 0))
      (bn4): BatchNorm2d(16, eps=1e-05, momentum=0.1, affine=True, track_running_stats=True)
      (conv5): Conv2d(16, 32, kernel_size=(1, 1), stride=(1, 1))
      (bn5): BatchNorm2d(32, eps=1e-05, momentum=0.1, affine=True, track_running_stats=True)
      (shortcut): Sequential(
        (0): Conv2d(64, 32, kernel_size=(1, 1), stride=(1, 1))
        (1): BatchNorm2d(32, eps=1e-05, momentum=0.1, affine=True, track_running_stats=True)
      )
    )
    (1): BasicBlock(
      (conv1): Conv2d(32, 16, kernel_size=(1, 1), stride=(1, 1))
      (bn1): BatchNorm2d(16, eps=1e-05, momentum=0.1, affine=True, track_running_stats=True)
      (conv2): Conv2d(16, 8, kernel_size=(1, 1), stride=(1, 1))
      (bn2): BatchNorm2d(8, eps=1e-05, momentum=0.1, affine=True, track_running_stats=True)
      (conv3): Conv2d(8, 16, kernel_size=(1, 3), stride=(1, 1), padding=(0, 1))
      (bn3): BatchNorm2d(16, eps=1e-05, momentum=0.1, affine=True, track_running_stats=True)
      (conv4): Conv2d(16, 16, kernel_size=(3, 1), stride=(1, 1), padding=(1, 0))
      (bn4): BatchNorm2d(16, eps=1e-05, momentum=0.1, affine=True, track_running_stats=True)
      (conv5): Conv2d(16, 32, kernel_size=(1, 1), stride=(1, 1))
      (bn5): BatchNorm2d(32, eps=1e-05, momentum=0.1, affine=True, track_running_stats=True)
      (shortcut): Sequential()
    )
    (2): BasicBlock(
      (conv1): Conv2d(32, 16, kernel_size=(1, 1), stride=(1, 1))
      (bn1): BatchNorm2d(16, eps=1e-05, momentum=0.1, affine=True, track_running_stats=True)
      (conv2): Conv2d(16, 8, kernel_size=(1, 1), stride=(1, 1))
      (bn2): BatchNorm2d(8, eps=1e-05, momentum=0.1, affine=True, track_running_stats=True)
      (conv3): Conv2d(8, 16, kernel_size=(1, 3), stride=(1, 1), padding=(0, 1))
      (bn3): BatchNorm2d(16, eps=1e-05, momentum=0.1, affine=True, track_running_stats=True)
      (conv4): Conv2d(16, 16, kernel_size=(3, 1), stride=(1, 1), padding=(1, 0))
      (bn4): BatchNorm2d(16, eps=1e-05, momentum=0.1, affine=True, track_running_stats=True)
      (conv5): Conv2d(16, 32, kernel_size=(1, 1), stride=(1, 1))
      (bn5): BatchNorm2d(32, eps=1e-05, momentum=0.1, affine=True, track_running_stats=True)
      (shortcut): Sequential()
    )
    (3): BasicBlock(
      (conv1): Conv2d(32, 16, kernel_size=(1, 1), stride=(1, 1))
      (bn1): BatchNorm2d(16, eps=1e-05, momentum=0.1, affine=True, track_running_stats=True)
      (conv2): Conv2d(16, 8, kernel_size=(1, 1), stride=(1, 1))
      (bn2): BatchNorm2d(8, eps=1e-05, momentum=0.1, affine=True, track_running_stats=True)
      (conv3): Conv2d(8, 16, kernel_size=(1, 3), stride=(1, 1), padding=(0, 1))
      (bn3): BatchNorm2d(16, eps=1e-05, momentum=0.1, affine=True, track_running_stats=True)
      (conv4): Conv2d(16, 16, kernel_size=(3, 1), stride=(1, 1), padding=(1, 0))
      (bn4): BatchNorm2d(16, eps=1e-05, momentum=0.1, affine=True, track_running_stats=True)
      (conv5): Conv2d(16, 32, kernel_size=(1, 1), stride=(1, 1))
      (bn5): BatchNorm2d(32, eps=1e-05, momentum=0.1, affine=True, track_running_stats=True)
      (shortcut): Sequential()
    )
    (4): BasicBlock(
      (conv1): Conv2d(32, 16, kernel_size=(1, 1), stride=(1, 1))
      (bn1): BatchNorm2d(16, eps=1e-05, momentum=0.1, affine=True, track_running_stats=True)
      (conv2): Conv2d(16, 8, kernel_size=(1, 1), stride=(1, 1))
      (bn2): BatchNorm2d(8, eps=1e-05, momentum=0.1, affine=True, track_running_stats=True)
      (conv3): Conv2d(8, 16, kernel_size=(1, 3), stride=(1, 1), padding=(0, 1))
      (bn3): BatchNorm2d(16, eps=1e-05, momentum=0.1, affine=True, track_running_stats=True)
      (conv4): Conv2d(16, 16, kernel_size=(3, 1), stride=(1, 1), padding=(1, 0))
      (bn4): BatchNorm2d(16, eps=1e-05, momentum=0.1, affine=True, track_running_stats=True)
      (conv5): Conv2d(16, 32, kernel_size=(1, 1), stride=(1, 1))
      (bn5): BatchNorm2d(32, eps=1e-05, momentum=0.1, affine=True, track_running_stats=True)
      (shortcut): Sequential()
    )
    (5): BasicBlock(
      (conv1): Conv2d(32, 16, kernel_size=(1, 1), stride=(1, 1))
      (bn1): BatchNorm2d(16, eps=1e-05, momentum=0.1, affine=True, track_running_stats=True)
      (conv2): Conv2d(16, 8, kernel_size=(1, 1), stride=(1, 1))
      (bn2): BatchNorm2d(8, eps=1e-05, momentum=0.1, affine=True, track_running_stats=True)
      (conv3): Conv2d(8, 16, kernel_size=(1, 3), stride=(1, 1), padding=(0, 1))
      (bn3): BatchNorm2d(16, eps=1e-05, momentum=0.1, affine=True, track_running_stats=True)
      (conv4): Conv2d(16, 16, kernel_size=(3, 1), stride=(1, 1), padding=(1, 0))
      (bn4): BatchNorm2d(16, eps=1e-05, momentum=0.1, affine=True, track_running_stats=True)
      (conv5): Conv2d(16, 32, kernel_size=(1, 1), stride=(1, 1))
      (bn5): BatchNorm2d(32, eps=1e-05, momentum=0.1, affine=True, track_running_stats=True)
      (shortcut): Sequential()
    )
  )
  (stage2): Sequential(
    (0): BasicBlock(
      (conv1): Conv2d(32, 32, kernel_size=(1, 1), stride=(2, 2))
      (bn1): BatchNorm2d(32, eps=1e-05, momentum=0.1, affine=True, track_running_stats=True)
      (conv2): Conv2d(32, 16, kernel_size=(1, 1), stride=(1, 1))
      (bn2): BatchNorm2d(16, eps=1e-05, momentum=0.1, affine=True, track_running_stats=True)
      (conv3): Conv2d(16, 32, kernel_size=(1, 3), stride=(1, 1), padding=(0, 1))
      (bn3): BatchNorm2d(32, eps=1e-05, momentum=0.1, affine=True, track_running_stats=True)
      (conv4): Conv2d(32, 32, kernel_size=(3, 1), stride=(1, 1), padding=(1, 0))
      (bn4): BatchNorm2d(32, eps=1e-05, momentum=0.1, affine=True, track_running_stats=True)
      (conv5): Conv2d(32, 64, kernel_size=(1, 1), stride=(1, 1))
      (bn5): BatchNorm2d(64, eps=1e-05, momentum=0.1, affine=True, track_running_stats=True)
      (shortcut): Sequential(
        (0): Conv2d(32, 64, kernel_size=(1, 1), stride=(2, 2))
        (1): BatchNorm2d(64, eps=1e-05, momentum=0.1, affine=True, track_running_stats=True)
      )
    )
    (1): BasicBlock(
      (conv1): Conv2d(64, 32, kernel_size=(1, 1), stride=(1, 1))
      (bn1): BatchNorm2d(32, eps=1e-05, momentum=0.1, affine=True, track_running_stats=True)
      (conv2): Conv2d(32, 16, kernel_size=(1, 1), stride=(1, 1))
      (bn2): BatchNorm2d(16, eps=1e-05, momentum=0.1, affine=True, track_running_stats=True)
      (conv3): Conv2d(16, 32, kernel_size=(1, 3), stride=(1, 1), padding=(0, 1))
      (bn3): BatchNorm2d(32, eps=1e-05, momentum=0.1, affine=True, track_running_stats=True)
      (conv4): Conv2d(32, 32, kernel_size=(3, 1), stride=(1, 1), padding=(1, 0))
      (bn4): BatchNorm2d(32, eps=1e-05, momentum=0.1, affine=True, track_running_stats=True)
      (conv5): Conv2d(32, 64, kernel_size=(1, 1), stride=(1, 1))
      (bn5): BatchNorm2d(64, eps=1e-05, momentum=0.1, affine=True, track_running_stats=True)
      (shortcut): Sequential()
    )
    (2): BasicBlock(
      (conv1): Conv2d(64, 32, kernel_size=(1, 1), stride=(1, 1))
      (bn1): BatchNorm2d(32, eps=1e-05, momentum=0.1, affine=True, track_running_stats=True)
      (conv2): Conv2d(32, 16, kernel_size=(1, 1), stride=(1, 1))
      (bn2): BatchNorm2d(16, eps=1e-05, momentum=0.1, affine=True, track_running_stats=True)
      (conv3): Conv2d(16, 32, kernel_size=(1, 3), stride=(1, 1), padding=(0, 1))
      (bn3): BatchNorm2d(32, eps=1e-05, momentum=0.1, affine=True, track_running_stats=True)
      (conv4): Conv2d(32, 32, kernel_size=(3, 1), stride=(1, 1), padding=(1, 0))
      (bn4): BatchNorm2d(32, eps=1e-05, momentum=0.1, affine=True, track_running_stats=True)
      (conv5): Conv2d(32, 64, kernel_size=(1, 1), stride=(1, 1))
      (bn5): BatchNorm2d(64, eps=1e-05, momentum=0.1, affine=True, track_running_stats=True)
      (shortcut): Sequential()
    )
    (3): BasicBlock(
      (conv1): Conv2d(64, 32, kernel_size=(1, 1), stride=(1, 1))
      (bn1): BatchNorm2d(32, eps=1e-05, momentum=0.1, affine=True, track_running_stats=True)
      (conv2): Conv2d(32, 16, kernel_size=(1, 1), stride=(1, 1))
      (bn2): BatchNorm2d(16, eps=1e-05, momentum=0.1, affine=True, track_running_stats=True)
      (conv3): Conv2d(16, 32, kernel_size=(1, 3), stride=(1, 1), padding=(0, 1))
      (bn3): BatchNorm2d(32, eps=1e-05, momentum=0.1, affine=True, track_running_stats=True)
      (conv4): Conv2d(32, 32, kernel_size=(3, 1), stride=(1, 1), padding=(1, 0))
      (bn4): BatchNorm2d(32, eps=1e-05, momentum=0.1, affine=True, track_running_stats=True)
      (conv5): Conv2d(32, 64, kernel_size=(1, 1), stride=(1, 1))
      (bn5): BatchNorm2d(64, eps=1e-05, momentum=0.1, affine=True, track_running_stats=True)
      (shortcut): Sequential()
    )
    (4): BasicBlock(
      (conv1): Conv2d(64, 32, kernel_size=(1, 1), stride=(1, 1))
      (bn1): BatchNorm2d(32, eps=1e-05, momentum=0.1, affine=True, track_running_stats=True)
      (conv2): Conv2d(32, 16, kernel_size=(1, 1), stride=(1, 1))
      (bn2): BatchNorm2d(16, eps=1e-05, momentum=0.1, affine=True, track_running_stats=True)
      (conv3): Conv2d(16, 32, kernel_size=(1, 3), stride=(1, 1), padding=(0, 1))
      (bn3): BatchNorm2d(32, eps=1e-05, momentum=0.1, affine=True, track_running_stats=True)
      (conv4): Conv2d(32, 32, kernel_size=(3, 1), stride=(1, 1), padding=(1, 0))
      (bn4): BatchNorm2d(32, eps=1e-05, momentum=0.1, affine=True, track_running_stats=True)
      (conv5): Conv2d(32, 64, kernel_size=(1, 1), stride=(1, 1))
      (bn5): BatchNorm2d(64, eps=1e-05, momentum=0.1, affine=True, track_running_stats=True)
      (shortcut): Sequential()
    )
    (5): BasicBlock(
      (conv1): Conv2d(64, 32, kernel_size=(1, 1), stride=(1, 1))
      (bn1): BatchNorm2d(32, eps=1e-05, momentum=0.1, affine=True, track_running_stats=True)
      (conv2): Conv2d(32, 16, kernel_size=(1, 1), stride=(1, 1))
      (bn2): BatchNorm2d(16, eps=1e-05, momentum=0.1, affine=True, track_running_stats=True)
      (conv3): Conv2d(16, 32, kernel_size=(1, 3), stride=(1, 1), padding=(0, 1))
      (bn3): BatchNorm2d(32, eps=1e-05, momentum=0.1, affine=True, track_running_stats=True)
      (conv4): Conv2d(32, 32, kernel_size=(3, 1), stride=(1, 1), padding=(1, 0))
      (bn4): BatchNorm2d(32, eps=1e-05, momentum=0.1, affine=True, track_running_stats=True)
      (conv5): Conv2d(32, 64, kernel_size=(1, 1), stride=(1, 1))
      (bn5): BatchNorm2d(64, eps=1e-05, momentum=0.1, affine=True, track_running_stats=True)
      (shortcut): Sequential()
    )
  )
  (stage3): Sequential(
    (0): BasicBlock(
      (conv1): Conv2d(64, 64, kernel_size=(1, 1), stride=(2, 2))
      (bn1): BatchNorm2d(64, eps=1e-05, momentum=0.1, affine=True, track_running_stats=True)
      (conv2): Conv2d(64, 32, kernel_size=(1, 1), stride=(1, 1))
      (bn2): BatchNorm2d(32, eps=1e-05, momentum=0.1, affine=True, track_running_stats=True)
      (conv3): Conv2d(32, 64, kernel_size=(1, 3), stride=(1, 1), padding=(0, 1))
      (bn3): BatchNorm2d(64, eps=1e-05, momentum=0.1, affine=True, track_running_stats=True)
      (conv4): Conv2d(64, 64, kernel_size=(3, 1), stride=(1, 1), padding=(1, 0))
      (bn4): BatchNorm2d(64, eps=1e-05, momentum=0.1, affine=True, track_running_stats=True)
      (conv5): Conv2d(64, 128, kernel_size=(1, 1), stride=(1, 1))
      (bn5): BatchNorm2d(128, eps=1e-05, momentum=0.1, affine=True, track_running_stats=True)
      (shortcut): Sequential(
        (0): Conv2d(64, 128, kernel_size=(1, 1), stride=(2, 2))
        (1): BatchNorm2d(128, eps=1e-05, momentum=0.1, affine=True, track_running_stats=True)
      )
    )
    (1): BasicBlock(
      (conv1): Conv2d(128, 64, kernel_size=(1, 1), stride=(1, 1))
      (bn1): BatchNorm2d(64, eps=1e-05, momentum=0.1, affine=True, track_running_stats=True)
      (conv2): Conv2d(64, 32, kernel_size=(1, 1), stride=(1, 1))
      (bn2): BatchNorm2d(32, eps=1e-05, momentum=0.1, affine=True, track_running_stats=True)
      (conv3): Conv2d(32, 64, kernel_size=(1, 3), stride=(1, 1), padding=(0, 1))
      (bn3): BatchNorm2d(64, eps=1e-05, momentum=0.1, affine=True, track_running_stats=True)
      (conv4): Conv2d(64, 64, kernel_size=(3, 1), stride=(1, 1), padding=(1, 0))
      (bn4): BatchNorm2d(64, eps=1e-05, momentum=0.1, affine=True, track_running_stats=True)
      (conv5): Conv2d(64, 128, kernel_size=(1, 1), stride=(1, 1))
      (bn5): BatchNorm2d(128, eps=1e-05, momentum=0.1, affine=True, track_running_stats=True)
      (shortcut): Sequential()
    )
    (2): BasicBlock(
      (conv1): Conv2d(128, 64, kernel_size=(1, 1), stride=(1, 1))
      (bn1): BatchNorm2d(64, eps=1e-05, momentum=0.1, affine=True, track_running_stats=True)
      (conv2): Conv2d(64, 32, kernel_size=(1, 1), stride=(1, 1))
      (bn2): BatchNorm2d(32, eps=1e-05, momentum=0.1, affine=True, track_running_stats=True)
      (conv3): Conv2d(32, 64, kernel_size=(1, 3), stride=(1, 1), padding=(0, 1))
      (bn3): BatchNorm2d(64, eps=1e-05, momentum=0.1, affine=True, track_running_stats=True)
      (conv4): Conv2d(64, 64, kernel_size=(3, 1), stride=(1, 1), padding=(1, 0))
      (bn4): BatchNorm2d(64, eps=1e-05, momentum=0.1, affine=True, track_running_stats=True)
      (conv5): Conv2d(64, 128, kernel_size=(1, 1), stride=(1, 1))
      (bn5): BatchNorm2d(128, eps=1e-05, momentum=0.1, affine=True, track_running_stats=True)
      (shortcut): Sequential()
    )
    (3): BasicBlock(
      (conv1): Conv2d(128, 64, kernel_size=(1, 1), stride=(1, 1))
      (bn1): BatchNorm2d(64, eps=1e-05, momentum=0.1, affine=True, track_running_stats=True)
      (conv2): Conv2d(64, 32, kernel_size=(1, 1), stride=(1, 1))
      (bn2): BatchNorm2d(32, eps=1e-05, momentum=0.1, affine=True, track_running_stats=True)
      (conv3): Conv2d(32, 64, kernel_size=(1, 3), stride=(1, 1), padding=(0, 1))
      (bn3): BatchNorm2d(64, eps=1e-05, momentum=0.1, affine=True, track_running_stats=True)
      (conv4): Conv2d(64, 64, kernel_size=(3, 1), stride=(1, 1), padding=(1, 0))
      (bn4): BatchNorm2d(64, eps=1e-05, momentum=0.1, affine=True, track_running_stats=True)
      (conv5): Conv2d(64, 128, kernel_size=(1, 1), stride=(1, 1))
      (bn5): BatchNorm2d(128, eps=1e-05, momentum=0.1, affine=True, track_running_stats=True)
      (shortcut): Sequential()
    )
    (4): BasicBlock(
      (conv1): Conv2d(128, 64, kernel_size=(1, 1), stride=(1, 1))
      (bn1): BatchNorm2d(64, eps=1e-05, momentum=0.1, affine=True, track_running_stats=True)
      (conv2): Conv2d(64, 32, kernel_size=(1, 1), stride=(1, 1))
      (bn2): BatchNorm2d(32, eps=1e-05, momentum=0.1, affine=True, track_running_stats=True)
      (conv3): Conv2d(32, 64, kernel_size=(1, 3), stride=(1, 1), padding=(0, 1))
      (bn3): BatchNorm2d(64, eps=1e-05, momentum=0.1, affine=True, track_running_stats=True)
      (conv4): Conv2d(64, 64, kernel_size=(3, 1), stride=(1, 1), padding=(1, 0))
      (bn4): BatchNorm2d(64, eps=1e-05, momentum=0.1, affine=True, track_running_stats=True)
      (conv5): Conv2d(64, 128, kernel_size=(1, 1), stride=(1, 1))
      (bn5): BatchNorm2d(128, eps=1e-05, momentum=0.1, affine=True, track_running_stats=True)
      (shortcut): Sequential()
    )
    (5): BasicBlock(
      (conv1): Conv2d(128, 64, kernel_size=(1, 1), stride=(1, 1))
      (bn1): BatchNorm2d(64, eps=1e-05, momentum=0.1, affine=True, track_running_stats=True)
      (conv2): Conv2d(64, 32, kernel_size=(1, 1), stride=(1, 1))
      (bn2): BatchNorm2d(32, eps=1e-05, momentum=0.1, affine=True, track_running_stats=True)
      (conv3): Conv2d(32, 64, kernel_size=(1, 3), stride=(1, 1), padding=(0, 1))
      (bn3): BatchNorm2d(64, eps=1e-05, momentum=0.1, affine=True, track_running_stats=True)
      (conv4): Conv2d(64, 64, kernel_size=(3, 1), stride=(1, 1), padding=(1, 0))
      (bn4): BatchNorm2d(64, eps=1e-05, momentum=0.1, affine=True, track_running_stats=True)
      (conv5): Conv2d(64, 128, kernel_size=(1, 1), stride=(1, 1))
      (bn5): BatchNorm2d(128, eps=1e-05, momentum=0.1, affine=True, track_running_stats=True)
      (shortcut): Sequential()
    )
    (6): BasicBlock(
      (conv1): Conv2d(128, 64, kernel_size=(1, 1), stride=(1, 1))
      (bn1): BatchNorm2d(64, eps=1e-05, momentum=0.1, affine=True, track_running_stats=True)
      (conv2): Conv2d(64, 32, kernel_size=(1, 1), stride=(1, 1))
      (bn2): BatchNorm2d(32, eps=1e-05, momentum=0.1, affine=True, track_running_stats=True)
      (conv3): Conv2d(32, 64, kernel_size=(1, 3), stride=(1, 1), padding=(0, 1))
      (bn3): BatchNorm2d(64, eps=1e-05, momentum=0.1, affine=True, track_running_stats=True)
      (conv4): Conv2d(64, 64, kernel_size=(3, 1), stride=(1, 1), padding=(1, 0))
      (bn4): BatchNorm2d(64, eps=1e-05, momentum=0.1, affine=True, track_running_stats=True)
      (conv5): Conv2d(64, 128, kernel_size=(1, 1), stride=(1, 1))
      (bn5): BatchNorm2d(128, eps=1e-05, momentum=0.1, affine=True, track_running_stats=True)
      (shortcut): Sequential()
    )
    (7): BasicBlock(
      (conv1): Conv2d(128, 64, kernel_size=(1, 1), stride=(1, 1))
      (bn1): BatchNorm2d(64, eps=1e-05, momentum=0.1, affine=True, track_running_stats=True)
      (conv2): Conv2d(64, 32, kernel_size=(1, 1), stride=(1, 1))
      (bn2): BatchNorm2d(32, eps=1e-05, momentum=0.1, affine=True, track_running_stats=True)
      (conv3): Conv2d(32, 64, kernel_size=(1, 3), stride=(1, 1), padding=(0, 1))
      (bn3): BatchNorm2d(64, eps=1e-05, momentum=0.1, affine=True, track_running_stats=True)
      (conv4): Conv2d(64, 64, kernel_size=(3, 1), stride=(1, 1), padding=(1, 0))
      (bn4): BatchNorm2d(64, eps=1e-05, momentum=0.1, affine=True, track_running_stats=True)
      (conv5): Conv2d(64, 128, kernel_size=(1, 1), stride=(1, 1))
      (bn5): BatchNorm2d(128, eps=1e-05, momentum=0.1, affine=True, track_running_stats=True)
      (shortcut): Sequential()
    )
  )
  (stage4): Sequential(
    (0): BasicBlock(
      (conv1): Conv2d(128, 128, kernel_size=(1, 1), stride=(2, 2))
      (bn1): BatchNorm2d(128, eps=1e-05, momentum=0.1, affine=True, track_running_stats=True)
      (conv2): Conv2d(128, 64, kernel_size=(1, 1), stride=(1, 1))
      (bn2): BatchNorm2d(64, eps=1e-05, momentum=0.1, affine=True, track_running_stats=True)
      (conv3): Conv2d(64, 128, kernel_size=(1, 3), stride=(1, 1), padding=(0, 1))
      (bn3): BatchNorm2d(128, eps=1e-05, momentum=0.1, affine=True, track_running_stats=True)
      (conv4): Conv2d(128, 128, kernel_size=(3, 1), stride=(1, 1), padding=(1, 0))
      (bn4): BatchNorm2d(128, eps=1e-05, momentum=0.1, affine=True, track_running_stats=True)
      (conv5): Conv2d(128, 256, kernel_size=(1, 1), stride=(1, 1))
      (bn5): BatchNorm2d(256, eps=1e-05, momentum=0.1, affine=True, track_running_stats=True)
      (shortcut): Sequential(
        (0): Conv2d(128, 256, kernel_size=(1, 1), stride=(2, 2))
        (1): BatchNorm2d(256, eps=1e-05, momentum=0.1, affine=True, track_running_stats=True)
      )
    )
  )
  (conv2): Conv2d(256, 128, kernel_size=(1, 1), stride=(1, 1))
  (bn2): BatchNorm2d(128, eps=1e-05, momentum=0.1, affine=True, track_running_stats=True)
  (linear): Linear(in_features=128, out_features=10, bias=True)
)
=> do not use any checkpoint for sqnxt_23_1x model

==>>[2018-11-22 03:05:06] [Epoch=000/300] [Need: 00:00:00] [learning_rate=0.1000] [Best : Accuracy=0.00, Error=100.00]
  Epoch: [000][000/391]   Time 0.869 (0.869)   Data 0.101 (0.101)   Loss 2.4003 (2.4003)   Prec@1 10.938 (10.938)   Prec@5 58.594 (58.594)   [2018-11-22 03:05:07]
  Epoch: [000][200/391]   Time 0.155 (0.154)   Data 0.000 (0.001)   Loss 1.8363 (2.0308)   Prec@1 31.250 (23.527)   Prec@5 84.375 (74.891)   [2018-11-22 03:05:37]
…
